MyApplication/app/src/main/assets/tomato.tflite (tflite, 743012 bytes, 16 tensors)

sequential/conv2d/BiasAdd/ReadVariableOp f4 [32]
0	0xbd0e3c33	-0.03472538
1	0xbd002ef0	-0.031294763
2	0xbc8b173d	-0.016978854
3	0x3dfe558b	0.1241866
4	0xbd032883	-0.032021057
5	0xbd070944	-0.03296782
6	0xbda96230	-0.08270681
7	0x3dbb22c3	0.0913749
8	0xbd9b32d9	-0.07578058
9	0xbdc7e785	-0.09760956
10	0xbca06923	-0.019581383
11	0x3db4da93	0.08830752
12	0xbcd96464	-0.026537128
13	0x3d32378d	0.04351001
14	0xbcb43066	-0.021995734
15	0xbd7e9d64	-0.06216182
16	0x3bdd02c4	0.0067447145
17	0xbcbf90d1	-0.023384484
18	0xbcb00fdd	-0.02149194
19	0x3ce7704e	0.028251793
20	0x3c2b0d63	0.010440203
21	0xbd11bfa9	-0.035583172
22	0xbd5a6d36	-0.053326808
23	0x3d8d82cb	0.069097124
24	0x3bf8a7f8	0.007588383
25	0x3dd16b0b	0.10225495
26	0xbd288365	-0.041140933
27	0x3cfaff31	0.030639263
28	0xbc35c5fa	-0.011094565
29	0xbd294a4e	-0.041330628
30	0x3c8b95b3	0.017039156
31	0xbcef6540	-0.029223084

sequential/conv2d_1/BiasAdd/ReadVariableOp f4 [64]
0	0xbd0116c3	-0.031515848
1	0xbd28f5f9	-0.041250203
2	0xbcf3eb2e	-0.029775228
3	0xbcedd7cd	-0.029033566
4	0xbdc012a3	-0.09378555
5	0xbd294091	-0.04132134
6	0xbd2f89ba	-0.042855956
7	0xbca254e0	-0.019815862
8	0x3da83f3d	0.08215187
9	0x3ccac1ae	0.024750557
10	0x3e0fac77	0.14030634
11	0xbc6a3a12	-0.014296072
12	0xbcc2ad39	-0.02376424
13	0x3d3bec0a	0.0458794
14	0xbbf23f54	-0.007392803
15	0xbcfe5d2a	-0.031050283
16	0xbd40b372	-0.047046132
17	0xbc5d6d24	-0.013514791
18	0xbc91c155	-0.017792383
19	0xbcc1228d	-0.023576045
20	0xbd9a8d3e	-0.07546471
21	0xbdb47502	-0.0881138
22	0x3da5256c	0.08063778
23	0xbcc42ffc	-0.023948662
24	0xbd15dd84	-0.036588207
25	0xbc8a5427	-0.01688583
26	0xbe0bbf76	-0.13647255
27	0x3cc65bf0	0.024213761
28	0xbd8ffc2b	-0.07030519
29	0xbd026705	-0.03183653
30	0xbcaaa057	-0.02082841
31	0xbd5b1387	-0.05348542
32	0xbdd8bfb7	-0.10583442
33	0xbd062c7e	-0.032757275
34	0xbe38ad54	-0.1803487
35	0xbc6967f2	-0.014245974
36	0xbd834d3c	-0.06411216
37	0xbc1c3952	-0.009535151
38	0xbd00fedb	-0.03149305
39	0xbc35a891	-0.011087553
40	0xbcd95589	-0.026530044
41	0xbcfcc7e7	-0.03085704
42	0xbd12c399	-0.035831068
43	0xbcc166a2	-0.02360851
44	0xbdad9e21	-0.08477426
45	0xbd75f9a5	-0.060052533
46	0xbcadbed2	-0.021209154
47	0xbd8875a5	-0.06663064
48	0xbe0209fe	-0.12699124
49	0x3bd9dfca	0.006648992
50	0xbcadc7b3	-0.021213388
51	0xba6907e4	-0.00088894204
52	0x3c89edf8	0.016837105
53	0xbdb01231	-0.0859722
54	0xbdb8d16b	-0.09024318
55	0xbc9f8d4f	-0.01947656
56	0xbce984b1	-0.028505655
57	0xbc7584e2	-0.014985295
58	0x3b4c4d7a	0.003117411
59	0xbd036fa1	-0.03208888
60	0xbcd4fa99	-0.0259984
61	0xbd1fe00a	-0.03903202
62	0xbd7d8b77	-0.061900582
63	0x3d0f1432	0.03493137

sequential/conv2d_2/BiasAdd/ReadVariableOp f4 [64]
0	0x3d35f791	0.04442555
1	0xbd8029a7	-0.062579446
2	0xbd431b3e	-0.047633402
3	0xbd151263	-0.036394488
4	0xbccdb3a8	-0.02511008
5	0xbd607603	-0.054800045
6	0xbd5b6090	-0.053558886
7	0xbcfa1eaa	-0.0305322
8	0x3c4a421e	0.012344865
9	0xbe189766	-0.14901504
10	0xbcf952bb	-0.030434957
11	0x3ba412a2	0.005007104
12	0xbce713c2	-0.028207663
13	0xbc90f321	-0.017694058
14	0xbd0cae30	-0.034345806
15	0xbce030db	-0.027367046
16	0xbcb49600	-0.022044182
17	0xbd87865b	-0.06617423
18	0x3d11a2b3	0.035555553
19	0xbd5be8e9	-0.053688917
20	0xbd1e4cdc	-0.038647518
21	0xbc96a9b5	-0.01839147
22	0xbcbcc85a	-0.023044754
23	0xbd55e17f	-0.052217003
24	0xbce0e075	-0.02745078
25	0xbca1305b	-0.019676378
26	0x3db453ad	0.088050224
27	0xbda14bc4	-0.07875779
28	0x3d8bd7fa	0.06828304
29	0xbc898b32	-0.016790006
30	0xbd4672fe	-0.04844951
31	0xbe43dbe2	-0.19126847
32	0xbd98c3ed	-0.07459245
33	0x3c24d3ea	0.01006029
34	0xbd5d1200	-0.053972244
35	0xbc7776b1	-0.015103982
36	0xbd100a13	-0.035165858
37	0xbda31476	-0.07962887
38	0xbce47fc2	-0.02789295
39	0xbd3acbb8	-0.045604438
40	0xbd734982	-0.059396274
41	0xbdc66b60	-0.09688449
42	0x3cdd1da1	0.026991667
43	0xbc773af5	-0.01508974
44	0xbd3a0f66	-0.04542484
45	0x3d8d3d3b	0.068964444
46	0xbcf84535	-0.030306438
47	0xbd359b83	-0.04433776
48	0xbd102070	-0.035187185
49	0xbd379682	-0.04482127
50	0xbbe75bee	-0.0070605194
51	0xbd658c0f	-0.056041773
52	0xbc981f60	-0.018569648
53	0x3927ba91	0.00015995862
54	0xbd92a7cb	-0.0716091
55	0xbd71aad1	-0.059000794
56	0xbcc3df84	-0.023910291
57	0xbcde91c3	-0.027169114
58	0xbc1f500a	-0.009723673
59	0x3d2096d4	0.03920634
60	0xbd01c84d	-0.031685162
61	0xbdeeb23f	-0.116550915
62	0xbd0c3d12	-0.03423793
63	0xbd8e6a54	-0.06953874

sequential/conv2d_3/BiasAdd/ReadVariableOp f4 [64]
0	0x3e7cc347	0.24683867
1	0xbd0a0cc3	-0.033703577
2	0x3b794f6a	0.003804172
3	0xbdff0b34	-0.12453309
4	0x3e1adf53	0.15124254
5	0xbdde9679	-0.10868544
6	0xbe3c2e08	-0.18376935
7	0xbe363bb4	-0.17796212
8	0xbcc43559	-0.02395122
9	0x3dfad873	0.12248316
10	0xbd33c655	-0.043890316
11	0xbe0aa164	-0.13538128
12	0xbd8462ff	-0.064641945
13	0xbd108d16	-0.0352908
14	0xbde3310b	-0.110933386
15	0xbd8ad3bb	-0.06778666
16	0xbe24b36f	-0.16084073
17	0xbde332bf	-0.110936634
18	0xbe05dc03	-0.13072209
19	0xbd07a69b	-0.03311787
20	0x3cd81316	0.026376288
21	0x3d7c9ddf	0.061673995
22	0xbcde839a	-0.027162362
23	0x3c889c1d	0.016676003
24	0xbcc63be9	-0.02419849
25	0x3e582429	0.21107544
26	0x3d2ba0db	0.04190145
27	0x3d70d9e4	0.058801547
28	0xbe627925	-0.22116525
29	0x3c469259	0.012119853
30	0xbd05f691	-0.032705847
31	0x3d37212f	0.04470938
32	0xbbb0006f	-0.0053711454
33	0x39fdac7a	0.00048384425
34	0xbca2bb13	-0.019864595
35	0xbcf4bfef	-0.029876677
36	0xbd531fa6	-0.051543854
37	0x3cde3960	0.027126968
38	0x3e05561e	0.13021132
39	0xbd92e623	-0.07172801
40	0xbda6f86f	-0.08152854
41	0x3d2af5a8	0.041738182
42	0x3c6cd0fe	0.0144541245
43	0xbd835bc2	-0.06413986
44	0xbd1bee87	-0.038069274
45	0xbe894188	-0.2680781
46	0x3dc5c5f3	0.096568964
47	0xbd153cac	-0.036434814
48	0xbd87d32a	-0.06632073
49	0xbd3dc366	-0.046328925
50	0x3dde42f6	0.108526155
51	0xbd2603df	-0.040531036
52	0xbcd57207	-0.026055349
53	0x3e2125a7	0.1573702
54	0xbd08b6be	-0.0333774
55	0xbd1b0b29	-0.03785244
56	0xbca98c2d	-0.020696724
57	0xbc2a11d0	-0.010380223
58	0x3d717f82	0.05895949
59	0x3dd25e3d	0.10271881
60	0xbc51eeed	-0.012813312
61	0xbcf2a42b	-0.029619297
62	0xbd5a0826	-0.053230427
63	0x3d875d62	0.06609608

sequential/conv2d_4/BiasAdd/ReadVariableOp f4 [64]
0	0xbcadd3fd	-0.021219248
1	0x3acce5d6	0.0015632461
2	0xbd4dc646	-0.050237916
3	0x3cbdf815	0.023189584
4	0xbdd6b8d6	-0.104844734
5	0xbd16d9bd	-0.036828745
6	0xbd4b28cc	-0.049599454
7	0x3e571ad8	0.21006334
8	0x3e2795bd	0.16365714
9	0x3dd1639e	0.102240786
10	0xbd805b61	-0.06267429
11	0x3ba7a82e	0.005116484
12	0xbd848bf2	-0.06472005
13	0x3dbee906	0.093217894
14	0xbddbc5e7	-0.10731106
15	0xbdd9f267	-0.10641938
16	0xbbab320d	-0.0052244724
17	0xbdc10349	-0.09424455
18	0xbdb2377f	-0.08701991
19	0x3baf0654	0.0053413305
20	0xbe8b1e5b	-0.27171597
21	0x3de2946d	0.11063466
22	0x3d61bfc3	0.05511452
23	0x3e5d62e4	0.21619755
24	0xbdd7781e	-0.105209574
25	0x3e2d7f08	0.1694299
26	0xbe37d3eb	-0.17951934
27	0x3e106694	0.1410163
28	0x3e2077e7	0.15670739
29	0xbccd6a55	-0.025075117
30	0x3c2485e6	0.0100416895
31	0xbd8e8b74	-0.06960192
32	0xbc8d0094	-0.01721219
33	0xbd064676	-0.03278204
34	0xbdf714f6	-0.12064545
35	0x3d757a69	0.059931193
36	0xbd98f2d2	-0.07468189
37	0x3de675dd	0.112529494
38	0xbe25ad42	-0.16179374
39	0x3c9667c2	0.018360022
40	0xbcab8c3d	-0.020940894
41	0xbd9c1e52	-0.07622971
42	0xbca38679	-0.019961582
43	0xbc5a3a96	-0.013319632
44	0xbdc654c2	-0.09684135
45	0xbe3116a8	-0.17293799
46	0xbcc1efbb	-0.023673883
47	0xbc9b513f	-0.01895964
48	0x3dc4f728	0.09617454
49	0x3d123a13	0.035699915
50	0xbdb55356	-0.08853786
51	0xbc8353ab	-0.016031107
52	0xbdc83661	-0.09775997
53	0xbd0d7c2a	-0.03454224
54	0x3e7a2cd8	0.24431169
55	0xbc75161d	-0.0149588855
56	0xbde06e31	-0.10958517
57	0x3e8067bd	0.25079146
58	0xbda6dced	-0.08147607
59	0x3d182d64	0.037152663
60	0xbd3b4e09	-0.045728717
61	0x3e1453b8	0.14485061
62	0x3d959fd3	0.07305875
63	0xbc3a9820	-0.0113888085

sequential/conv2d_5/BiasAdd/ReadVariableOp f4 [64]
0	0xbd27c7e2	-0.040962107
1	0x3e61e950	0.22061658
2	0xbd317d75	-0.043332536
3	0x3e6a2f55	0.22869618
4	0xbcdaeccb	-0.02672424
5	0xbd92e7b9	-0.07173104
6	0x3c50c1a5	0.012741481
7	0xbd0a620e	-0.03378492
8	0x3e292ce6	0.16521034
9	0xbbf84be4	-0.0075774062
10	0x3ceb45a0	0.028719723
11	0x3dc4b754	0.096052796
12	0xbd17f503	-0.037098896
13	0xbce38cd9	-0.027777122
14	0xbd8d3b5e	-0.06896089
15	0xbcdb780c	-0.026790641
16	0xbc5b5265	-0.013386344
17	0x3d12afef	0.035812315
18	0xbb6ba2e8	-0.0035955254
19	0x3d902165	0.070376195
20	0xbce492ca	-0.027902026
21	0xbd9ddfe5	-0.0770872
22	0xbd3e291a	-0.046425916
23	0xbca28895	-0.019840518
24	0xbcaabf9d	-0.020843321
25	0xbcedb46b	-0.029016694
26	0xbde26e39	-0.110561796
27	0xbd0df79b	-0.034659963
28	0x3b64c94e	0.0034910026
29	0xbb8f7db4	-0.0043789987
30	0xbd14a015	-0.03628548
31	0x3e65fbb4	0.22459298
32	0x3dfc5d2d	0.12322459
33	0x3d73b26b	0.059496325
34	0xbdd346a2	-0.103162065
35	0xbdeaa86b	-0.114579044
36	0x3d3bc9fb	0.04584692
37	0x3e1acf6f	0.15118192
38	0xbdbbf2a4	-0.091771394
39	0x3e340fa1	0.17584087
40	0x3db6debf	0.08929204
41	0xbd3e5d2b	-0.04647557
42	0xbe6c245d	-0.23060746
43	0xbd24c97c	-0.040231213
44	0x3d7f5fb0	0.062347114
45	0x3d968f6f	0.073515765
46	0x3da2cf12	0.07949652
47	0xbd67bf58	-0.056578964
48	0xbe67cbf9	-0.22636403
49	0xbc6cced9	-0.014453613
50	0xbc208a58	-0.009798609
51	0x3de2edcb	0.11080512
52	0xbca3dac7	-0.020001782
53	0xbc89f70c	-0.016841434
54	0xbc277f54	-0.0102232285
55	0xbcf2c5ae	-0.029635277
56	0xbd42f69b	-0.047598463
57	0xbcab03c4	-0.020875819
58	0x3b9c385b	0.0047674603
59	0xbd835420	-0.0641253
60	0xbca57586	-0.020197641
61	0xbd21e087	-0.039520767
62	0xbc34a815	-0.011026402
63	0x39e8e550	0.0004442134

sequential/conv2d/Conv2D f4 [32, 3, 3, 3]
0	0x3dbed871	0.09318627
1	0xbdfdf888	-0.12400919
2	0xbe0392f1	-0.12849022
3	0xbe115740	-0.1419344
4	0x3cc90308	0.024537578
5	0x3d289eef	0.041167196
6	0x3dd3b025	0.10336331
7	0xbd365976	-0.04451891
8	0xbd1b02bd	-0.03784441
9	0x3d6a7038	0.057235926
10	0x3db5d9d8	0.08879441
11	0xbde702f9	-0.11279864
12	0xbe2a3e33	-0.1662529
13	0xbda383f8	-0.079841554
14	0x3d623a53	0.055231404
15	0xbe28d2bb	-0.16486637
16	0xbd581a6a	-0.052759565
17	0xbdf56ca0	-0.11983609
18	0xbcdd2217	-0.026993794
19	0x3d1771e1	0.036973838
20	0xbdf80b61	-0.12111545
21	0xbda46f57	-0.08029049
22	0xbe19e38a	-0.15028206
23	0x3c918569	0.01776381
24	0xbcc30adc	-0.02380889
25	0xbdd06539	-0.10175557
26	0x3d8d2b55	0.068930306
27	0x3d7ec278	0.06219718
28	0x3d55ee48	0.052229196
29	0xbe5427b3	-0.20718269
30	0x3e01f6fb	0.12691872
31	0x3cc33e84	0.02383352
32	0x3cc7d4ff	0.024393557
33	0x3d920495	0.0712978
34	0xbbc6c71e	-0.006066217
35	0xbdf1d6a5	-0.11808518
36	0x3e2a488c	0.16629237
37	0x3d3bde77	0.045866456
38	0x3d28a14e	0.041169457
39	0x3e35bb26	0.17747173
40	0xbd0b77ed	-0.034049917
41	0xbd7224d2	-0.059117146
42	0x3e044d69	0.12920155
43	0xbd0dca89	-0.03461698
44	0xbe052b26	-0.13004741
45	0x3e22eea4	0.15911347
46	0xbdd657ab	-0.1046594
47	0xbdbbbbb3	-0.0916666
48	0x3e2d80f5	0.16943724
49	0xbdb5f159	-0.08883924
50	0xbbfecb0b	-0.0077756695
51	0x3e14b756	0.14523062
52	0xbe16c404	-0.14723212
53	0xbd83483f	-0.06410264
54	0xbdfc99d9	-0.123340316
55	0x3e0e3e55	0.13890965
56	0x3a5970b6	0.00082946883
57	0xbcbdc2a9	-0.02316411
58	0x3e0febeb	0.1405484
59	0xbd294f2a	-0.041335262
60	0xbe0863e3	-0.13319354
61	0x3e030592	0.12795094
62	0xbdffbc68	-0.124871075
63	0xbd1e2a97	-0.038614836
64	0x3d6691f9	0.056291554
65	0xbd50b486	-0.05095341
66	0xbe25f74c	-0.16207618
67	0x3da1ceb9	0.07900757
68	0x3dc4ff63	0.09619024
69	0xbc352714	-0.01105668
70	0x3e28f793	0.16500692
71	0x3d413acb	0.04717521
72	0xbd93119f	-0.07181095
73	0x3e2a6217	0.16638981
74	0x3a179f10	0.0005783895
75	0xbe01ba5e	-0.1266875
76	0x3e0c77a6	0.13717517
77	0x3bc1420d	0.0058977664
78	0xbe012146	-0.12610349
79	0x3e2865ef	0.16445135
80	0xbd46ceba	-0.048536994
81	0xbdbbd9b1	-0.09172381
82	0xbd07bb5a	-0.033137657
83	0xbe041f19	-0.12902488
84	0xbda09ba6	-0.078421876
85	0xbe096f9a	-0.13421479
86	0xbd4510be	-0.04811167
87	0xbce9ee30	-0.02855596
88	0xbd92f579	-0.071757264
89	0xbda15e88	-0.078793585
90	0xbd92cb30	-0.07167661
91	0xbe3dd759	-0.1853918
92	0xba66200e	-0.000877858
93	0xbd425fa4	-0.04745449
94	0x3d0e5370	0.03474754
95	0xbd220e9e	-0.03956472
96	0xbce0f50a	-0.027460594
97	0xbe5cd460	-0.2156539
98	0xbde19296	-0.11014287
99	0xbd25ccbf	-0.040478464
100	0xbaddff67	-0.0016937078
101	0x3d1871d9	0.03721795
102	0xbc8b7edd	-0.017028267
103	0xbe0d3b4d	-0.13792153
104	0xbdcd2423	-0.10016658
105	0x3c3fcbc5	0.011706297
106	0xbcc9f100	-0.02465105
107	0x3c66639c	0.014061835
108	0xbe36ff29	-0.17870773
109	0xbe25bbe4	-0.16184956
110	0x3c3b967e	0.011449454
111	0xbcf4339d	-0.029809767
112	0x3dde74d7	0.10862129
113	0xbced68b3	-0.028980589
114	0x3d7c8e84	0.06165935
115	0xbbc791cc	-0.0060903784
116	0x3db6115d	0.088900305
117	0xbdba06f9	-0.09083361
118	0x3ca9977f	0.020702122
119	0xbd74de99	-0.0597826
120	0x3e04f2ef	0.12983297
121	0x3bb21de2	0.005435691
122	0x3e04f2a5	0.12983187
123	0x3de864c4	0.113473445
124	0xbca1b81a	-0.019741107
125	0x3c3239b6	0.010878017
126	0x3c31f11c	0.010860708
127	0xbe24c14b	-0.1608936
128	0x3cb93260	0.022607028
129	0xbd88a632	-0.06672324
130	0x3d0b9af7	0.034083333
131	0x3e0f280c	0.1398012
132	0x3d263e24	0.040586606
133	0xbe0c7bf5	-0.13719161
134	0xbd005c14	-0.031337813
135	0x3c9f63ab	0.019456705
136	0x3db0eef6	0.08639328
137	0x3e2913b5	0.16511424
138	0x3d4e0cc2	0.050305136
139	0xbe2af9ca	-0.1669685
140	0x3e35c588	0.17751133
141	0x3d42ce61	0.0475601
142	0xbdfb2ac1	-0.12264014
143	0x3e150b55	0.14555104
144	0xbde4145b	-0.11136695
145	0xbe1c8fce	-0.15289232
146	0x3e4117d0	0.1885674
147	0xbd2489bc	-0.040170416
148	0xbd8c34d5	-0.068460144
149	0x3d8550e7	0.065095715
150	0xbc382672	-0.011239635
151	0x3cd8e275	0.02647517
152	0xbd1a7779	-0.037711594
153	0xbe02d258	-0.12775552
154	0x3d300002	0.042968757
155	0x3de90481	0.11377812
156	0x3d9785a8	0.0739854
157	0xbe18cced	-0.14921923
158	0x3ce1e660	0.027575672
159	0xbd95eb3a	-0.073202565
160	0xbda4cb03	-0.08046534
161	0xbd227c02	-0.039669044
162	0x3dcf8c7c	0.10134217
163	0x3c5c7860	0.013456434
164	0xbdbf6175	-0.0934476
165	0x3e2ee18f	0.17078231
166	0xbd75cf77	-0.060012307
167	0xbe179100	-0.14801407
168	0x3cb18370	0.02166912
169	0x3d011dcc	0.031522557
170	0x3a1450d0	0.0005657794
171	0x3d261cf4	0.040554956
172	0xbd28b459	-0.041187618
173	0x3bfb6a5a	0.00767259
174	0x3e0960cb	0.1341583
175	0x3d7532c1	0.059862856
176	0xbdc5e6f4	-0.096631914
177	0x3de42bd7	0.11141174
178	0x3d24be66	0.04022064
179	0xbca62159	-0.020279573
180	0x3e009176	0.12555489
181	0xbd592ce5	-0.05302133
182	0xbdf3a8d5	-0.118974365
183	0x3e18ef71	0.1493509
184	0x3dee4353	0.11633935
185	0xbe2b056d	-0.16701289
186	0x3d34f0f1	0.044175092
187	0xbd9b7651	-0.075909264
188	0xbdc3ef23	-0.09567096
189	0xbe337434	-0.17524797
190	0x3e1b5ec5	0.1517287
191	0xbac2d62b	-0.0014864852
192	0xbe1ff0d6	-0.15619215
193	0x3dada2d9	0.08478326
194	0xbe23ab11	-0.15983225
195	0xbdb99f4a	-0.09063585
196	0xbd493be1	-0.04912937
197	0xbe1efe3c	-0.1552667
198	0x3d66bbb6	0.05633136
199	0xbd1d1147	-0.038346555
200	0xbdb0b471	-0.086281665
201	0xbdf91992	-0.1216308
202	0x3e057158	0.13031518
203	0xbdd0caff	-0.101949684
204	0xbe23a934	-0.15982515
205	0x3c549a61	0.01297626
206	0xbce95423	-0.028482502
207	0xbd1b16dc	-0.037863597
208	0xbd17cc23	-0.037059914
209	0xbe0ad950	-0.1355946
210	0x3d3a4f4a	0.045485772
211	0x3dce494c	0.10072574
212	0xbe1ff933	-0.15622406
213	0xbdb40a24	-0.08790997
214	0x3e148075	0.14502127
215	0xbda72d9c	-0.08162996
216	0x3ddc14c7	0.107461505
217	0x3d7d54c8	0.06184843
218	0x3bc23d15	0.0059276917
219	0x3d8133eb	0.06308731
220	0x3d897837	0.06712382
221	0x3d12c9c4	0.03583695
222	0xbd7c1034	-0.06153889
223	0x3e144f65	0.14483412
224	0xbe09d601	-0.13460542
225	0xbe09151b	-0.13386957
226	0x3da003dd	0.07813237
227	0xbdd12ab4	-0.10213223
228	0xbe244ff6	-0.16046128
229	0x3d506b45	0.05088355
230	0x3d34c070	0.044128835
231	0x3dc50bc5	0.096213855
232	0x3c6b95d9	0.014378988
233	0xbe328c1e	-0.17436263
234	0xbb7e8143	-0.003883437
235	0xbd815df4	-0.06316748
236	0xbda292ca	-0.07938154
237	0xbdbf1055	-0.09329287
238	0x3d0d68cb	0.034523766
239	0xbd8256ff	-0.063642494
240	0x3da4df6b	0.08050426
241	0x3d80fe45	0.06298498
242	0xbe4e2ccf	-0.2013428
243	0xbd0818ed	-0.033226896
244	0x3caaeb42	0.020864133
245	0xbe0ca62b	-0.13735263
246	0x3d1acf38	0.037795275
247	0x3d204d70	0.03913635
248	0xbd252a9a	-0.04032383
249	0xbc903861	-0.017605009
250	0x3d680946	0.05664947
251	0xbdd215ad	-0.102580406
252	0x3dd7d6e1	0.10539032
253	0x3d1489f7	0.036264386
254	0x3c5d7939	0.013517671
255	0xbd2db21b	-0.042406183

sequential/conv2d_1/Conv2D f4 [64, 3, 3, 32]
0	0xbd42a932	-0.04752464
1	0xbd43ce96	-0.047804438
2	0xbcb32e6a	-0.021872718
3	0x3e1bb115	0.1520427
4	0xbe10feac	-0.1415965
5	0xbe2dbd1e	-0.16966674
6	0xbc70a6d1	-0.01468821
7	0xbc7fced2	-0.015613275
8	0xbe4b47d8	-0.19851625
9	0xbe0ff5f1	-0.14058663
10	0xbe2e9d09	-0.17052092
11	0x3e081fea	0.13293424
12	0xbd41aeb8	-0.047285765
13	0xbdab77d2	-0.08372463
14	0xbde8b83d	-0.11363266
15	0xbcf2a2fa	-0.029618729
16	0xbda6e6b8	-0.08149475
17	0xbdd20752	-0.102553025
18	0xbcc55f3b	-0.024093261
19	0xbddde0bc	-0.1083388
20	0xbdbb5666	-0.091473386
21	0xbcdfe7c1	-0.027332189
22	0xbe3f7848	-0.18698227
23	0x3d46b86d	0.048515726
24	0xbd4bdebf	-0.049772974
25	0x3e19a794	0.15005332
26	0xbc3ef23f	-0.011654436
27	0x3b794a5a	0.0038038702
28	0xbaac6078	-0.0013151309
29	0xbd720a0c	-0.059091613
30	0x3dd1502e	0.10220371
31	0xbd1bd198	-0.03804168
32	0xbd0f406b	-0.034973543
33	0xbd8b69d5	-0.06807295
34	0xbe19684f	-0.14981197
35	0x3d0d0551	0.0344289
36	0xbc99aaee	-0.018758263
37	0xbc214ebe	-0.009845434
38	0xbd981767	-0.07426339
39	0x3d05fe10	0.032712996
40	0xbe2e3255	-0.17011388
41	0xbd9cd6df	-0.07658171
42	0xbe7222ea	-0.23646131
43	0x3d995d0e	0.07488452
44	0x3dcbc56c	0.099497646
45	0xbdb2bbf0	-0.087272525
46	0xbe1850b4	-0.14874536
47	0x3e0945d1	0.13405539
48	0xbdd71dd5	-0.10503737
49	0xbd3e6de8	-0.046491534
50	0xbdc3e2e6	-0.09564762
51	0xbddfca8c	-0.109273046
52	0xbe049bc9	-0.12950052
53	0xbdc74fc7	-0.09732013
54	0xbe302e16	-0.1720508
55	0xbbf1dad6	-0.0073808236
56	0xbe11b1e7	-0.1422802
57	0x3d6c2375	0.057651002
58	0xbdca31c2	-0.09872772
59	0x3d5b447a	0.0535321
60	0xbd80d724	-0.06291035
61	0x3d290e21	0.04127324
62	0x3ddd203e	0.10797165
63	0x3d17d491	0.037067953
64	0xbda45c83	-0.08025458
65	0xbd5a98d3	-0.0533684
66	0xbd80d87e	-0.062912926
67	0x3dfc7b97	0.123282604
68	0x3cd8689f	0.026417075
69	0x3e205ca8	0.15660346
70	0x3da9e91e	0.08296417
71	0x3d5c40a2	0.053772576
72	0xbd742420	-0.059604764
73	0xbd3373f5	-0.043811757
74	0xbe1d54e0	-0.15364408
75	0xbc289065	-0.010288333
76	0x3def7b92	0.11693491
77	0xbc83091d	-0.015995556
78	0xbd6c5dfd	-0.05770682
79	0x3de7d514	0.11319938
80	0xbdc35185	-0.09537033
81	0xbcbbae42	-0.022910241
82	0xbb199460	-0.0023434386
83	0xbb861828	-0.004092235
84	0xbc6c996a	-0.014440874
85	0xbe74eefe	-0.23919293
86	0xbe707fec	-0.23486298
87	0xbbd96a9f	-0.0066350247
88	0xbe24d853	-0.16098146
89	0x3e276c1e	0.16349837
90	0xbb627871	-0.0034556652
91	0xbcb109ff	-0.021611212
92	0xbce1fb6d	-0.02758571
93	0x3e1d76a2	0.15377286
94	0x3e019bb4	0.12657052
95	0xbd112ddc	-0.035444126
96	0x3d51b06e	0.051193647
97	0xbe394338	-0.18092048
98	0x3cea50e5	0.028603027
99	0x3db3582b	0.08757051
100	0xbd7547b0	-0.05988282
101	0xbe0d411c	-0.13794369
102	0xbde409bc	-0.11134669
103	0xbd2e7e17	-0.042600717
104	0xbded2177	-0.115786485
105	0xbd6bcd45	-0.057568807
106	0xbd668cff	-0.056286808
107	0x3d78c26b	0.060732286
108	0xbdc4cc82	-0.09609319
109	0xbdea5a76	-0.11443035
110	0x3d94a287	0.07257562
111	0x3e4e26dc	0.20132011
112	0xbd800deb	-0.06252655
113	0xbc4dbc8d	-0.012557161
114	0x3d3c3c36	0.04595586
115	0xbe01f9ec	-0.12692994
116	0xbe2dd9d2	-0.16977623
117	0x3d0912b2	0.033465095
118	0xbdc652fb	-0.09683796
119	0x3dd8a323	0.10577991
120	0xbe06e5ee	-0.13173649
121	0x3e4b3c4c	0.1984722
122	0x3e27b106	0.16376123
123	0xbc8e7e21	-0.017394127
124	0xbc84190f	-0.01612523
125	0xbda1892c	-0.078874916
126	0xbc821fad	-0.015884245
127	0xbcd503e6	-0.026002835
128	0xbcb6fa0c	-0.022336029
129	0xbe3d80cd	-0.18506165
130	0xbd9b3abe	-0.075795636
131	0x3dd69d4a	0.10479219
132	0xbd8cec0e	-0.06880961
133	0x3c899224	0.016793318
134	0x3d00cd66	0.031445883
135	0xbb9fe1f3	-0.00487923
136	0xbdb268d6	-0.08711402
137	0xbd1319f4	-0.035913423
138	0xbd06f6d2	-0.03295023
139	0x3d91e065	0.07122878
140	0xbe10f20f	-0.14154838
141	0xbd7b60ce	-0.061371617
142	0x3d6d666e	0.057959013
143	0x3c66b07f	0.014080166
144	0x3d9bc239	0.076054044
145	0xbd18c696	-0.03729876
146	0xbe06f827	-0.131806
147	0xbdb4db5f	-0.08830904
148	0xbe329591	-0.17439868
149	0x3c86948a	0.01642825
150	0xbdf932e3	-0.12167909
151	0x3dd492aa	0.103795364
152	0xbe6e2146	-0.2325488
153	0x3e0eedf4	0.1395796
154	0xbd3cefae	-0.046127014
155	0xbd8456ea	-0.0646189
156	0x3b8e3bfc	0.004340647
157	0x3d1e4c9c	0.03864728
158	0xbce276ff	-0.027644632
159	0x3ce49c7f	0.027906654
160	0x3d69de9e	0.05709707
161	0xbe8b9ba9	-0.27267197
162	0xbd80a9b8	-0.06282371
163	0x3d80ad44	0.06283048
164	0xbd30f40d	-0.043201495
165	0xbd548270	-0.051882207
166	0xbe296990	-0.16544175
167	0x3d279472	0.040913053
168	0xbca188bd	-0.019718522
169	0xbdf811de	-0.12112783
170	0xbdd0f5b4	-0.10203114
171	0x3de76a6b	0.112995945
172	0xbd3fb306	-0.04680159
173	0xbdd7a963	-0.10530355
174	0xbc56c42f	-0.013108297
175	0x3dd92079	0.10601897
176	0xba91a74a	-0.0011112478
177	0xbdd06f29	-0.10177452
178	0xbc2e452f	-0.010636612
179	0xbc1b09ad	-0.009462756
180	0xbdc0079d	-0.09376452
181	0x3db5a990	0.08870232
182	0xbe0c3a9b	-0.13694231
183	0xba567cde	-0.0008182059
184	0xbda69980	-0.081347466
185	0x3d74d0f4	0.059769586
186	0x3c64521a	0.01393559
187	0xbd6214c5	-0.05519559
188	0x3d132dab	0.035932224
189	0xbdcc6597	-0.09980314
190	0xbc5f0ded	-0.01361416
191	0xbd15c8dc	-0.036568508
192	0x3c88a196	0.016678613
193	0x3cec31d0	0.028832346
194	0x3d5c1d91	0.053739134
195	0x3d3e32df	0.046435233
196	0xbb83e096	-0.0040245755
197	0x3c9a226e	0.018815245
198	0x3d4b01a2	0.049562104
199	0x3df3e277	0.11908429
200	0x3c87c369	0.016572671
201	0xbca1489b	-0.019687941
202	0xbe20deb4	-0.15709955
203	0x3d436d64	0.047711745
204	0x3d3b4f96	0.045730196
205	0xbd81b95c	-0.063341826
206	0x3e0a6b26	0.13517436
207	0x3e443a3a	0.19162837
208	0xbd5a0f51	-0.053237263
209	0x3d3c7b43	0.04601599
210	0x3d8c2f71	0.06844986
211	0x3c10ad71	0.008830414
212	0xbce6a12d	-0.028153026
213	0xbd965a71	-0.07341469
214	0x3dd9d664	0.10636595
215	0x3c866448	0.01640524
216	0xbe0480c1	-0.1293974
217	0x3dd5b693	0.10435214
218	0x3dd08385	0.10181335
219	0xbd6a8492	-0.057255335
220	0x3dad248a	0.08454235
221	0x3e890c77	0.26767322
222	0x3da05a07	0.07829671
223	0xbd97d15b	-0.07412978
224	0x3d50645a	0.050876953
225	0xbe1302b4	-0.143565
226	0x3d1764e0	0.036961436
227	0x3e16435b	0.14674132
228	0xbe2ffe36	-0.17186818
229	0xbdeee07b	-0.1166391
230	0xbdf08c14	-0.11745468
231	0xbaa1fc2d	-0.001235848
232	0xbcb7786d	-0.02239629
233	0xbdd57c60	-0.10424113
234	0xbdb7eff4	-0.08981314
235	0x3d3b0deb	0.04566757
236	0xbdb111a5	-0.086459436
237	0xbd4bd7d6	-0.049766384
238	0x3e15f665	0.14644773
239	0x3ddd84de	0.10816358
240	0x3d52c731	0.051459495
241	0x3d28f602	0.041250236
242	0x3d91c733	0.07118072
243	0xbdbdbf36	-0.09264986
244	0xbe23c187	-0.15991794
245	0x3c3276f0	0.010892615
246	0xbcb67c43	-0.02227605
247	0x3db958bb	0.09050127
248	0xbe00b836	-0.12570271
249	0x3e257486	0.16157731
250	0x3e5943aa	0.21217218
251	0xbd32fe76	-0.043699704
252	0xbda05b8d	-0.07829962
253	0x3bb1bdd6	0.0054242415
254	0x3de745a9	0.112925835
255	0xbd292861	-0.041298274

sequential/conv2d_2/Conv2D f4 [64, 3, 3, 64]
0	0x3d2ba85c	0.041908607
1	0x3d7b9f59	0.061431263
2	0xbc73e79d	-0.014886764
3	0x3d5eea6f	0.054422792
4	0xbd99b7f2	-0.07505788
5	0xbbf72eb8	-0.007543411
6	0xbc8355f7	-0.016032202
7	0xbd459d9e	-0.04824602
8	0xbd2a07a0	-0.041511178
9	0x3d8d5c08	0.06902319
10	0xbe3bc448	-0.18336594
11	0x3c52e192	0.012871163
12	0x3d574027	0.052551415
13	0x3da1ee4f	0.07906782
14	0xbd1bb1fe	-0.038011543
15	0x3d6c5b9f	0.057704564
16	0xb944d75e	-0.00018772247
17	0xbcccdc96	-0.025007527
18	0xbd308d1d	-0.043103326
19	0xbc5cef35	-0.013484766
20	0x3cc9f6d4	0.02465383
21	0x3c943cfd	0.018095488
22	0x3cafb4c6	0.021448504
23	0x3d5cfa2f	0.05394953
24	0xbd58705f	-0.05284154
25	0x3df21594	0.11820522
26	0xbdbfa6af	-0.09357964
27	0xbd8899e0	-0.06669974
28	0x3d791a7d	0.060816277
29	0x3c8239a7	0.015896631
30	0xbcb2e8bf	-0.021839498
31	0xbdc0a1a9	-0.09405834
32	0xbd0bb133	-0.034104537
33	0xbdcb67f0	-0.09931934
34	0xbcda3199	-0.026634978
35	0xbd4e2256	-0.050325714
36	0xbe060d20	-0.13090944
37	0xbd05f0c3	-0.03270031
38	0x3d0f48be	0.03498148
39	0xbd732405	-0.059360523
40	0x3dce6d90	0.10079491
41	0xbcf8d254	-0.03037373
42	0x3d89bb8c	0.06725225
43	0x3cf8344a	0.03029837
44	0xbd632aa6	-0.055460595
45	0xbc75514d	-0.014972997
46	0x3cbfd44c	0.02341666
47	0xbd0704b3	-0.032963466
48	0xbd96a261	-0.0735519
49	0x3d871c23	0.065971635
50	0xbd34f001	-0.044174198
51	0xbe0cfcdd	-0.13768335
52	0xbdf69727	-0.12040549
53	0xbb6e4cf5	-0.0036361788
54	0xbd86af26	-0.06576376
55	0x3c941bc9	0.018079655
56	0x3b7b0e37	0.0038308033
57	0x3d293dd9	0.04131875
58	0x3c96c6b1	0.01840529
59	0xbdd14b01	-0.10219384
60	0xbd8c06a2	-0.068372026
61	0xbd3d10c9	-0.046158586
62	0xbd37807b	-0.044800263
63	0x3c485939	0.012228304
64	0xbd96089b	-0.0732586
65	0x3c75f3db	0.015011753
66	0xbd82f207	-0.06393819
67	0x3dad9413	0.084755085
68	0xbe07a22e	-0.1324546
69	0x3b81b57e	0.003958403
70	0xbd03d99a	-0.032189943
71	0xbc472151	-0.012153939
72	0xbdbc362c	-0.0919002
73	0x3d328777	0.04358622
74	0xbe247aee	-0.16062519
75	0xbd07cfe6	-0.03315725
76	0xbc56b006	-0.013103491
77	0xbb01b0e4	-0.0019789273
78	0xbd954685	-0.07288841
79	0x3ce1166c	0.027476512
80	0xbd68c453	-0.056827854
81	0xbd90ae88	-0.07064539
82	0x3ced7f46	0.028991353
83	0x3bd9acaa	0.0066428976
84	0xbb57d97a	-0.0032936023
85	0x3d711a1f	0.0588628
86	0xbd212b70	-0.039348066
87	0xbd56da4f	-0.05245429
88	0x3d6fd17d	0.058549393
89	0x3db8da0e	0.09025966
90	0xbda54545	-0.08069853
91	0x3d8cc527	0.06873541
92	0xbbad4200	-0.005287409
93	0x3da37316	0.07980935
94	0x3ca634da	0.020288873
95	0xbc8cd8c6	-0.01719321
96	0x3aa492d8	0.001255597
97	0xbdc31b54	-0.09526697
98	0xbccb4bde	-0.02481645
99	0x3d784942	0.06061674
100	0xbd12f9bf	-0.035882708
101	0x3b5467f3	0.0032410591
102	0x3c9020c4	0.017593749
103	0xbdd7e6e6	-0.10542087
104	0xbd47ac53	-0.048748326
105	0xbb64e964	-0.003492915
106	0xbcc56c2f	-0.024099438
107	0x3d0f1ce6	0.03493967
108	0xbd91aff6	-0.0711364
109	0x3d9a367a	0.07529922
110	0xbc9f8b93	-0.019475734
111	0xbbd4e144	-0.0064965803
112	0xbdd2ea57	-0.10298603
113	0xbd29f214	-0.04149063
114	0xbd0c3dff	-0.03423881
115	0xbcfc6cd8	-0.03081362
116	0x3bcadee1	0.00619112
117	0xbd75c042	-0.059997804
118	0xbdf3798d	-0.11888418
119	0xbd7e452e	-0.062077694
120	0xbc04d2af	-0.0081068715
121	0xbbf0cbf9	-0.007348534
122	0x3aa3ce8f	0.0012497472
123	0xbb9882bb	-0.004654256
124	0x3a89a45a	0.0010501251
125	0xbceb54ec	-0.028727017
126	0xbda2ee39	-0.079555936
127	0xbdd0a117	-0.101869754
128	0xbbc07c72	-0.00587421
129	0xbd8e499f	-0.06947636
130	0x3d6a55c7	0.05721071
131	0xbbe22582	-0.006901444
132	0xbd3d7144	-0.046250597
133	0x3c90bbf0	0.01766774
134	0x3d17b2f7	0.03703591
135	0x3bea1213	0.007143268
136	0xbe018548	-0.12648499
137	0x3dbe36f1	0.09287823
138	0xbdafa2ff	-0.08576011
139	0xbc9a2317	-0.01881556
140	0x3d1c0880	0.038094044
141	0x3df386fb	0.1189098
142	0xbdd9ef9e	-0.106414065
143	0xbd2514a5	-0.04030289
144	0xbd3a57a6	-0.045493744
145	0x3d3ee323	0.046603333
146	0xbd8878db	-0.06663676
147	0x3bc43cc3	0.0059886887
148	0xbd369049	-0.044571195
149	0x3d99d367	0.07511025
150	0xbd93967c	-0.07206437
151	0x3d901c16	0.07036607
152	0x3cb9b107	0.022667421
153	0x3e185190	0.14874864
154	0xbd958b70	-0.07301986
155	0xbc66c795	-0.01408567
156	0xbd3d8951	-0.046273533
157	0x3d759570	0.059956968
158	0x3dcdbcbc	0.10045764
159	0xbd78a15d	-0.060700763
160	0xbc98efb2	-0.018668983
161	0x3ce59b78	0.028028235
162	0x3cad576e	0.021159854
163	0x3d10ba90	0.03533417
164	0xbd2147fe	-0.039375298
165	0x3c80cd1f	0.01572281
166	0x3bbf4622	0.005837218
167	0xbc283b1c	-0.010267999
168	0x3b47c37b	0.0030481506
169	0x3b8e2bf7	0.004338737
170	0xbd55ef1c	-0.052229986
171	0xbd1a2de1	-0.03764141
172	0xbc8dfe68	-0.017333224
173	0x3d31a046	0.04336574
174	0x3d5cf54b	0.053944867
175	0xbcb78e4d	-0.022406721
176	0xbc9f2c98	-0.019430444
177	0x3db74c5f	0.089501135
178	0xbd51991b	-0.051171403
179	0xbdcbfaaa	-0.0995992
180	0xbcc32215	-0.023819963
181	0x3b93a7af	0.0045060734
182	0x3c31a9da	0.010843718
183	0xbd9aaf7b	-0.075530015
184	0xbca99a60	-0.020703495
185	0x3d7f40bd	0.0623176
186	0x3d1628a2	0.036659844
187	0xbda7b798	-0.081893146
188	0x3d50246b	0.05081598
189	0xbc304f93	-0.0107611595
190	0xbd9e7398	-0.077368915
191	0xbda329a6	-0.07966928
192	0x3d917c22	0.071037546
193	0xbe0028da	-0.12515584
194	0x3c18b8f5	0.009321441
195	0xbc1a1bc2	-0.009406032
196	0xbe081fff	-0.13293456
197	0xbc22aab0	-0.00992839
198	0x3c9e103c	0.01929485
199	0xbd3cb273	-0.04606862
200	0xbdf24831	-0.11830176
201	0xbba62a72	-0.005070978
202	0xbe267a0c	-0.16257495
203	0x3d37fc0d	0.04491811
204	0xbcf1d82d	-0.029522026
205	0x3d9dac80	0.076989174
206	0xbbeaf046	-0.007169756
207	0xbb2a32b7	-0.002597017
208	0xbda47313	-0.08029761
209	0xbd0abe6c	-0.033873007
210	0xbda0d008	-0.07852179
211	0xbd1e5d5b	-0.03866325
212	0xbd4008a1	-0.04688323
213	0x3d74a4b0	0.05972737
214	0xbe1f8f54	-0.15582019
215	0x3d57bf31	0.05267257
216	0xbd23a48f	-0.039951857
217	0x3c348143	0.0110171465
218	0xbc300fd8	-0.010745965
219	0xbd226413	-0.03964622
220	0xbc70931a	-0.014683509
221	0x3ceddc9a	0.029035855
222	0xbd866ac8	-0.06563336
223	0xbd36febf	-0.04467654
224	0xbd93ac82	-0.07210638
225	0xbd9d708c	-0.07687482
226	0xbdf42348	-0.11920792
227	0x3d27cef9	0.04096887
228	0xbd788aef	-0.060679372
229	0xbd25f855	-0.04052003
230	0xbd77e815	-0.060524065
231	0x3cc4a701	0.024005415
232	0x3da4761f	0.08030342
233	0xbd5a5ae3	-0.053309333
234	0xbd18c83c	-0.037300333
235	0x3cc1f154	0.023674645
236	0xbcfeacbf	-0.031088231
237	0x3d35adce	0.044355206
238	0x3d205421	0.03914273
239	0xbb47e524	-0.0030501569
240	0xbc444ba4	-0.011980925
241	0xbd488b4b	-0.048960965
242	0xbd338db7	-0.04383632
243	0x3abe7542	0.0014530795
244	0xbdb51d17	-0.08843439
245	0xbd063a18	-0.032770246
246	0xbdb778d9	-0.08958597
247	0x3d9c0a7b	0.076191865
248	0x3d002e5d	0.031294215
249	0x3cf001fb	0.02929782
250	0x3d76aaff	0.06022167
251	0xbca7c855	-0.020481268
252	0xbd6574b2	-0.056019492
253	0xbde948bd	-0.11390827
254	0xbd8548f6	-0.06508057
255	0xbdd16ab6	-0.102254316

sequential/conv2d_3/Conv2D f4 [64, 3, 3, 64]
0	0x3cc5b241	0.02413285
1	0xbdfce59c	-0.12348482
2	0xbdc651bf	-0.096835606
3	0xbc000ee7	-0.007816053
4	0xbd891838	-0.066940725
5	0xbd2e95ea	-0.042623438
6	0xbcebb5af	-0.028773157
7	0x3d8abae3	0.06773927
8	0xbddb7f20	-0.107176065
9	0xbe1a2ce8	-0.15056193
10	0xbcf45138	-0.029823884
11	0x3d6c01b4	0.05761881
12	0xbe89b6dd	-0.26897326
13	0xbd0c22ad	-0.034212757
14	0x3d3d459b	0.04620896
15	0xbd8b1636	-0.06791346
16	0x3d34debf	0.04415774
17	0x3b2ccf07	0.0026368515
18	0xbb14c2ef	-0.0022699197
19	0x3d6deda3	0.058087956
20	0xbd47bd00	-0.04876423
21	0xbcc83036	-0.024437051
22	0x3d88ff0d	0.06689272
23	0xbacaf6db	-0.0015484946
24	0x3d1ae67f	0.037817474
25	0xbd6a5389	-0.05720857
26	0x3d1fd922	0.039025433
27	0x3cca8fe5	0.024726817
28	0x3dd2176f	0.10258376
29	0xbcdb08ec	-0.026737653
30	0xbd568b5a	-0.05237899
31	0xbe328521	-0.17433597
32	0xbd9299af	-0.07158219
33	0x3ddfffb0	0.109374404
34	0xbd9f796c	-0.07786831
35	0x3d817408	0.06320959
36	0x3acac736	0.0015470746
37	0xbd3cc6de	-0.046088092
38	0xbd41be3c	-0.047300562
39	0xbd2d3828	-0.042289883
40	0x3d2883e6	0.041141413
41	0xbc213fd5	-0.009841879
42	0xbbf7f1a6	-0.0075666485
43	0x3bc14e50	0.005899228
44	0xbd1d3b5b	-0.038386684
45	0x3d81e0ec	0.063417286
46	0xbd9a8654	-0.07545152
47	0xbd1d092a	-0.038338818
48	0xbbfeab8f	-0.007771916
49	0xbdcdffcf	-0.10058557
50	0x3db6fed3	0.089353226
51	0x3d836a04	0.06416705
52	0x3d1bc40c	0.03802876
53	0xbe0fc6f9	-0.14040746
54	0x3d97b54c	0.074076265
55	0xbd367bb1	-0.044551555
56	0xbc8ca7b9	-0.01716982
57	0x3d664d3b	0.056225996
58	0xbe0cfa1f	-0.13767289
59	0xbca3a5bb	-0.019976487
60	0x3dbccc01	0.09218598
61	0xbda50e75	-0.08059398
62	0x3c661882	0.014043929
63	0xbd11210c	-0.035431907
64	0x3d451f19	0.04812536
65	0xbde1a1c4	-0.110171825
66	0xbe4919e7	-0.19638787
67	0x3d18a60a	0.037267722
68	0xbd656701	-0.056006435
69	0x3d8c6f24	0.06857136
70	0x3d10f043	0.03538538
71	0x3c9e1487	0.019296898
72	0x3d5839a1	0.052789334
73	0xbc88ee39	-0.016715156
74	0xbd1d9310	-0.038470328
75	0xb924e6ed	-0.00015726285
76	0xbe3f1180	-0.1865902
77	0x3c7d7dec	0.015471917
78	0xbc64ab2c	-0.013956826
79	0xbd5d1858	-0.053978294
80	0x3d5cc58c	0.053899333
81	0xbe19c689	-0.15017141
82	0xbce8c61b	-0.028414777
83	0xbd203c02	-0.039119728
84	0x3d0c4a26	0.0342504
85	0xbd89d2e6	-0.06729679
86	0xbcf05f71	-0.029342385
87	0x3d9bdb26	0.076101586
88	0xbd0f64e0	-0.03500831
89	0x3d8e47cf	0.0694729
90	0x3d93c27e	0.07214831
91	0x3e295164	0.16534954
92	0x3dd28f62	0.10281254
93	0xbd7e6b8e	-0.06211429
94	0xbd089742	-0.033347376
95	0xbe9f57bd	-0.31121626
96	0xbbb92362	-0.00564997
97	0xba8b2ae2	-0.0010617638
98	0xbddf30cd	-0.1089798
99	0xbd541812	-0.051780768
100	0x3c5ffa21	0.013670475
101	0xbdbd9d4e	-0.09258519
102	0x3c6ce650	0.014459208
103	0xbdce7bc3	-0.100821994
104	0x3e22cb69	0.15897907
105	0xbd29dcf4	-0.041470483
106	0x3c96143c	0.018320195
107	0x3ce04285	0.027375469
108	0xbda08c54	-0.078392655
109	0x3d8cc67e	0.06873797
110	0xbc071bbe	-0.00824636
111	0x3d56b161	0.052415255
112	0x3d6acb6f	0.057322916
113	0x3a848a0a	0.001011194
114	0x3e0f0fe9	0.13970913
115	0xbcb117f9	-0.021617876
116	0x3c9a70b0	0.018852562
117	0xbdfd76ae	-0.12376152
118	0x3e0286b0	0.12746692
119	0xbbf75e02	-0.0075490484
120	0x3d2da115	0.042389948
121	0xbd283073	-0.04106183
122	0xbdea8c12	-0.114524975
123	0xbbdade5e	-0.0066793403
124	0x3dc2ed37	0.095179014
125	0x3c95e71f	0.018298684
126	0xbba3a11d	-0.0049935714
127	0x3dafdb7d	0.08586786
128	0x3d14f0d0	0.03636247
129	0xbe11ad6a	-0.14226308
130	0xbe1c777c	-0.15279955
131	0x3b870fd6	0.004121761
132	0x3c574f98	0.013141535
133	0x3bfaba33	0.007651591
134	0xbba75d94	-0.005107591
135	0x3bab71c4	0.005232068
136	0xbc84d8fe	-0.016216751
137	0xbe1a92d7	-0.15095077
138	0xbcdb39de	-0.026760992
139	0x3d00ba03	0.031427395
140	0xbe28e162	-0.16492227
141	0xbcfbd819	-0.030742692
142	0x3d5f44c0	0.054508924
143	0xbd657a96	-0.05602511
144	0x3d957d34	0.07299271
145	0xbdf76c2a	-0.120811775
146	0x3db59d07	0.08867841
147	0xbcb50a32	-0.022099588
148	0xbdc13b4d	-0.09435139
149	0xbd9c945f	-0.07645487
150	0xba6f3852	-0.0009125519
151	0x3d829a96	0.06377141
152	0x3d382276	0.04495474
153	0xbcab5dbc	-0.02091872
154	0x3cae02f1	0.021241637
155	0x3e0d11ab	0.13776271
156	0x3de8651b	0.11347409
157	0x3c2ab42b	0.010418932
158	0x3e0cdf03	0.13756947
159	0xbe0248da	-0.12723103
160	0xbda9c09b	-0.0828869
161	0x3c0b49d2	0.008501487
162	0xbd900d5e	-0.070337996
163	0x3d8045fc	0.062633485
164	0x3d82c6ab	0.06385549
165	0x3d42e41d	0.047580827
166	0x3d0c8ec2	0.034315832
167	0xbcc7e67d	-0.024401898
168	0x3e59c95e	0.21268222
169	0xbd4f7eac	-0.050657913
170	0x3cd287f1	0.025699588
171	0xbc5d405f	-0.013504117
172	0xbd999af1	-0.07500256
173	0xbcebe12e	-0.028793897
174	0xbc693121	-0.014232905
175	0xbd8900fc	-0.06689641
176	0xbbb5321f	-0.0055296565
177	0xbd79dcb0	-0.06100148
178	0x3cbdd36d	0.023172105
179	0xbe16dc56	-0.14732489
180	0x3cba9dcd	0.022780323
181	0xbd1fe881	-0.039040092
182	0x3e1fb60b	0.15596788
183	0x3cb01c5e	0.021497902
184	0xbc900c74	-0.017584063
185	0xbd4f0570	-0.050542295
186	0x3d38302b	0.04496781
187	0x3b72df96	0.0037059537
188	0xbcca9289	-0.024728077
189	0x3c92ac82	0.017904524
190	0x3da1686a	0.078812435
191	0x3dae6721	0.08515764
192	0x3c6ecb83	0.014574888
193	0xbe3bf2ba	-0.18354312
194	0xbe4a8597	-0.19777523
195	0xbcce14d0	-0.025156409
196	0xbc359b0c	-0.011084329
197	0xbd1d1bb5	-0.0383565
198	0x3c0d2e49	0.008616992
199	0xbd1f6100	-0.038910866
200	0xbe1700b3	-0.1474636
201	0xbe97ba9c	-0.2963456
202	0xbd21811f	-0.03942978
203	0xbe632339	-0.22181405
204	0xbdd3efd1	-0.10348476
205	0xbc5cf006	-0.01348496
206	0x3da2e237	0.07953303
207	0xbd5efa0f	-0.054437693
208	0x3af75955	0.0018871228
209	0xbd998f6d	-0.074980594
210	0xbc9c322d	-0.019066894
211	0x3db3d0d8	0.08780068
212	0x3c1fc683	0.009751919
213	0xbc2fcfe1	-0.010730715
214	0xbd4c8cf0	-0.049939096
215	0xbc3f4691	-0.011674539
216	0x3d11fd5a	0.035642006
217	0x3d26a587	0.040685203
218	0x3cf065d3	0.029345429
219	0xbda082fe	-0.07837485
220	0x3d4116c5	0.047140855
221	0x3d38556b	0.045003336
222	0x3d7a1ab1	0.06106061
223	0xbe2e69f8	-0.17032611
224	0x3d53b571	0.051686708
225	0x3d53691c	0.051613912
226	0xbe7c4389	-0.24635138
227	0x3d028d58	0.031873077
228	0x3bfd5e73	0.0077322065
229	0xbd9cec04	-0.07662204
230	0xbcf28dcf	-0.029608635
231	0xbc360bde	-0.011111228
232	0xbda43509	-0.08017928
233	0xbd8cb6a9	-0.06870777
234	0xbdce0d68	-0.10061151
235	0xbc1c4d33	-0.00953989
236	0xbcc2d360	-0.023782432
237	0x3dce8424	0.100837976
238	0xbd5df642	-0.054189928
239	0x3d756a13	0.059915613
240	0x3d8e502b	0.069488846
241	0xbda86dc5	-0.08224062
242	0x3ddce5e8	0.10786039
243	0x3e18433d	0.148694
244	0xbd1a9a97	-0.037745085
245	0xbd9e09e2	-0.07716729
246	0xbe23add7	-0.15984283
247	0xbe4fdd41	-0.20299245
248	0xbbfef594	-0.00778074
249	0xbc0634f1	-0.008191333
250	0xbd96a9c7	-0.07356601
251	0xbd8c23b6	-0.06842749
252	0xbc1102b8	-0.008850746
253	0x3d29a1a0	0.041413903
254	0x3c3a8648	0.011384554
255	0x3ce9ebfa	0.028554905

sequential/conv2d_4/Conv2D f4 [64, 3, 3, 64]
0	0x3c810bbc	0.015752666
1	0xbd2b8442	-0.041874178
2	0x3c76eb3d	0.015070734
3	0x3cfb596a	0.030682284
4	0xbd831f21	-0.06402422
5	0x3ad3499f	0.0016119963
6	0xbd688d50	-0.05677539
7	0x3cee2841	0.029071929
8	0xbcfcf8a8	-0.030880287
9	0xbd9a5ad8	-0.07536858
10	0xbca669cd	-0.020314122
11	0xbc47dbc0	-0.012198389
12	0xbd229431	-0.039692108
13	0xbc3c3311	-0.011486785
14	0xbdb03895	-0.08604542
15	0x3d2b2e74	0.041792348
16	0xbd928980	-0.07155132
17	0x3c8a8be1	0.016912403
18	0x3ce22518	0.027605578
19	0xbdca7d3e	-0.09887169
20	0xbd191cfc	-0.037381157
21	0xba353ce6	-0.00069136766
22	0x3d4f9f4b	0.050689023
23	0xbcc30b41	-0.023809077
24	0xbd893153	-0.06698861
25	0x3a8020a4	0.0009775353
26	0xbd531ede	-0.05154311
27	0xbcb8d50d	-0.022562528
28	0x3d426392	0.04745824
29	0x3c259b17	0.010107777
30	0x3ced1808	0.028942123
31	0xbd2ec1bf	-0.04266524
32	0x3c8f414e	0.017487194
33	0xbd3f282b	-0.046669167
34	0x3d82e45a	0.06391211
35	0x3d47aa0c	0.048746154
36	0xba35e9b7	-0.0006939428
37	0xbdb5226d	-0.08844457
38	0x3d3b411d	0.045716394
39	0xbd292fb4	-0.04130526
40	0xbce7ec4b	-0.028310915
41	0xbd6ca1b9	-0.05777142
42	0x3b9b8174	0.0047456566
43	0x3d1d6c77	0.03843352
44	0x3b9c43ac	0.0047688093
45	0xbd936e36	-0.071987554
46	0xbd9202e3	-0.07129457
47	0xbc2ece6d	-0.010669333
48	0x3d007d19	0.031369302
49	0xbd384a1e	-0.04499256
50	0x3d49fe28	0.049314648
51	0x3d098f8e	0.03358417
52	0x3d133dc3	0.035947572
53	0xbd020b74	-0.031749204
54	0x3bae625e	0.005321785
55	0xbd96ad5c	-0.073572844
56	0xbc223805	-0.009901051
57	0x3be3d6dc	0.0069531035
58	0xbc8c36a7	-0.017115904
59	0x3c821f23	0.015883988
60	0xbd101293	-0.035173964
61	0xbd45476a	-0.04816381
62	0xbd35c707	-0.04437926
63	0xbd948d89	-0.07253558
64	0xbc8dd927	-0.01731546
65	0x3cba07cf	0.022708802
66	0xbdb05752	-0.08610405
67	0x3d0c1d63	0.034207713
68	0xbc868338	-0.016419992
69	0x3c95e03e	0.018295404
70	0x3cd210cb	0.025642773
71	0xbc6edae3	-0.014578554
72	0x3c906f23	0.01763112
73	0xbd2ad6b0	-0.04170865
74	0x3d01357a	0.03154514
75	0x3d0613c7	0.032733705
76	0xbc86786e	-0.016414847
77	0xbd16b293	-0.036791395
78	0xbdc2fccc	-0.095208734
79	0xbc2051ab	-0.009785096
80	0x39e9fce1	0.00044629633
81	0x3c4e8671	0.0126052955
82	0x3d1b2397	0.037875738
83	0xbca78459	-0.02044885
84	0xbd4cfaba	-0.0500438
85	0x3cd29de9	0.025710063
86	0x3d1ceacb	0.038309854
87	0x3ca59c90	0.020216256
88	0xbd2b815c	-0.041871414
89	0x3cff39cc	0.03115549
90	0xbc87af66	-0.016563129
91	0xbd9061e1	-0.07049919
92	0xbcce2b29	-0.025167065
93	0xbc998774	-0.018741347
94	0x3d202348	0.039096147
95	0xbd8f88a7	-0.07008486
96	0x3d1cebfa	0.038310982
97	0xbce1d75a	-0.027568508
98	0x3d7d9879	0.061912987
99	0xbd9992e8	-0.07498723
100	0xbd928c66	-0.07155685
101	0xbd9ea507	-0.0774632
102	0xbd54143f	-0.05177712
103	0x3b59af2f	0.003321599
104	0x3d5e3740	0.05425191
105	0x3cbf8868	0.023380473
106	0xbd4df56c	-0.05028288
107	0x3d1d9342	0.038470514
108	0xbd126908	-0.035744697
109	0xbd48ff9c	-0.049071893
110	0xbd10d07d	-0.03535508
111	0xbc8cc0ab	-0.017181715
112	0x3c4f8f2b	0.012668411
113	0x3d607e9e	0.05480825
114	0xbd4f538d	-0.05061679
115	0x3d169861	0.036766414
116	0x3d653a94	0.055964068
117	0x3c486d78	0.012233131
118	0x3d3029c3	0.043008577
119	0xbd1d0df8	-0.0383434
120	0x3d4f0268	0.050539404
121	0x3d05d932	0.032677837
122	0xbdaf757a	-0.08567329
123	0xbd655f3f	-0.055999037
124	0xbd857c39	-0.06517834
125	0xbd9f5f21	-0.07781816
126	0x3b6de58f	0.0036300158
127	0xbd134fa0	-0.03596461
128	0xbc478586	-0.012177831
129	0xbd64cfaf	-0.055862125
130	0xbdaac67d	-0.0833864
131	0xbcf25791	-0.02958277
132	0x3d00d843	0.031456243
133	0xbd5ae433	-0.053440284
134	0xbd814b3c	-0.06313178
135	0xbce74251	-0.028229864
136	0x3bd946ff	0.006630778
137	0xbd72ed41	-0.059308294
138	0xbd705e38	-0.058683604
139	0xbd9375c5	-0.07200197
140	0xbd50a39d	-0.050937284
141	0x3c1e4430	0.009659812
142	0xbd0431b2	-0.032273956
143	0x3d562c7d	0.05228852
144	0xbd379339	-0.044818137
145	0xbd7bd41b	-0.061481576
146	0x3ca8e1c0	0.020615458
147	0x3d3d2492	0.046177454
148	0x3d401e74	0.046904042
149	0xbdaf82c3	-0.08569863
150	0x3d24ea31	0.040262405
151	0xbd3256ca	-0.0435398
152	0xbcf5e6c0	-0.030017257
153	0xbd8357e5	-0.06413249
154	0x3d24edfe	0.04026603
155	0x3d7fe3f9	0.06247327
156	0xbd8bc7f1	-0.06825245
157	0x3ca1ff22	0.019774977
158	0x3b021dda	0.0019854219
159	0x3b6fde9b	0.003660119
160	0xbd4eeb28	-0.05051723
161	0x3cb14e84	0.021643884
162	0x3d5f3541	0.054494146
163	0x3cea14f4	0.028574444
164	0xbd672d1b	-0.0564395
165	0xbdabbb3d	-0.08385322
166	0x3cfecfe1	0.031104984
167	0x3b48e82e	0.0030655968
168	0x3cbd45d1	0.02310458
169	0x3c939085	0.018013248
170	0xbdb98a66	-0.090596005
171	0xbd14d989	-0.03634027
172	0xbd8431d4	-0.064548165
173	0xbd76084b	-0.060066503
174	0x3d578427	0.052616265
175	0x3d016910	0.031594336
176	0xbbec0987	-0.007203284
177	0xbd09b60f	-0.03362089
178	0xbb45d9ef	-0.0030189713
179	0x3d1e221a	0.03860674
180	0x3d04f431	0.03245944
181	0x3c9ba350	0.018998772
182	0x3cd4f30f	0.025994806
183	0xbd646c8d	-0.055767585
184	0xbd598c63	-0.0531124
185	0x3d3c0981	0.0459075
186	0xba524cd4	-0.00080223125
187	0xbd7e2ed5	-0.06205638
188	0x3d7633d6	0.06010803
189	0xbd87475f	-0.0660541
190	0xbd048247	-0.032350805
191	0x3bde4272	0.0067828232
192	0x3d25d05c	0.04048191
193	0xbb4cc238	-0.0031243693
194	0x3d36b800	0.04460907
195	0x3cdf5cc2	0.02726591
196	0xbc9ec6d8	-0.019381925
197	0xbd78a5b9	-0.06070492
198	0x3ca35338	0.019937143
199	0xbab10b03	-0.001350731
200	0xbd1a1db9	-0.037626002
201	0xbd4d51cf	-0.050126847
202	0x3d00a8b3	0.031410884
203	0x3c5d615f	0.013511985
204	0xbd112272	-0.03543324
205	0xbda8a737	-0.08235019
206	0xbdb3276a	-0.08747752
207	0xbd275644	-0.040853754
208	0x3d1295b0	0.035787284
209	0xbd798e55	-0.060926754
210	0x3d8906b5	0.066907324
211	0x3b6a987f	0.003579646
212	0xbc93ab57	-0.018026037
213	0xbc034c28	-0.0080137625
214	0x3ccac156	0.024750393
215	0xbc9fce31	-0.0195075
216	0x3c7210f2	0.014774548
217	0xbcd0cef6	-0.025489312
218	0x3c5b93bf	0.013401925
219	0xbd8fc391	-0.07019723
220	0x3ce9bdc2	0.028532866
221	0xbd9af38d	-0.07565985
222	0x3d4fe4a9	0.050755177
223	0x3d56b37d	0.052417267
224	0xbcb2fbf2	-0.021848653
225	0xbbd7a3b0	-0.0065807924
226	0xbca58bbe	-0.020208236
227	0xbb25f633	-0.0025323748
228	0xbd3cd735	-0.046103675
229	0xbdd79156	-0.105257675
230	0x3bb7e87e	0.005612432
231	0x3c112c7f	0.008860706
232	0xbd134993	-0.035958838
233	0xbd65dfeb	-0.056121748
234	0xbd0050cc	-0.031327054
235	0x3d5ddc2f	0.05416506
236	0xbd266957	-0.040627804
237	0xbd9ec9b7	-0.07753318
238	0xbca738c4	-0.02041281
239	0xbda059e0	-0.07829642
240	0xbd5b714f	-0.053574856
241	0x3d508b5a	0.050914146
242	0x3cf395c8	0.029734507
243	0xbd4b8575	-0.04968782
244	0xbd3e0cbf	-0.046398874
245	0xbd67c88d	-0.056587745
246	0xbdc6bba5	-0.09703759
247	0x3cdcb29f	0.026940642
248	0x3d84d1cc	0.06485328
249	0x3d6e259c	0.058141336
250	0xbcec24f8	-0.028826222
251	0x3c1a00e2	0.009399625
252	0x3d97a117	0.07403772
253	0xbd2fe274	-0.042940572
254	0xbce115ce	-0.027476218
255	0xbcbfd809	-0.023418443
